checkpoint.pth (torch_old, 78286 bytes, 8 tensors)

fc1.weight f4 [64, 37]
00000000: 80ef e73c e5dd 3bbf 14ea 1bbd 00c7 c2bd
00000010: 92c6 49bf 5e4e bfbd fee8 f9bd 1e71 e1bd
00000020: f37e abbe 9c7e 62bd 16a5 56be 4f7f 10be
00000030: 9b28 08bd e47f e8be 6e0d 8abe 4fa7 b0be
00000040: 9dee 7ebd 29e2 c7bb 3c92 22bd 54fc 1ebd
00000050: 338f 2fbe 4666 34be b3f6 b63d 21ce a4be
00000060: ee1c e6be d2a9 22bf b35a 5d3e 74c0 23be
00000070: 987e f4bd 0fb2 f5bd b673 aabd c10a 70bd
00000080: 8f9f 4abe c329 c3be 0b07 ecbe 680e 7b3e
00000090: 2a4d 013e 48fa 63bd 1e48 ae3d fc78 ae3d
000000a0: afb0 83bc 9480 26bb f468 893e e4ed 11bf
000000b0: 800f 70bd 6ddc 2fbf 7b2f 0cc0 91a0 1c3e
000000c0: bd6a 733e 7e66 be3d cfa0 dc3d 969f 26bc
000000d0: 9e36 76bd 4630 10bc 3bfc 963d db5b 3e3d
000000e0: 84a5 5e3d f336 77bd 2a0f 3c3d 9f71 923d
000000f0: d22e df3d 203b 203e 6a1e aabb 7254 ea3d
00000100: dbad 24bd 6be3 e2bc 93b4 12be a945 bbbd
00000110: 97f0 46be fb3e 103c f9bc 0a3e 6f3f 8c3e
00000120: 6db1 123c 1fc9 72bb 0f7e fabd 37ab 04bd
00000130: d9d6 533c 11f6 553d 15b4 a43d 2f90 b0bd
00000140: b4ac ad3d f162 24bd 21ff a73c 0e92 7d3d
00000150: b8d0 c83e 6186 9ebe 63d5 03bf f117 7bbe
00000160: 7c21 a7bf ad42 d9bc 2843 9c3d 0624 423e
00000170: e9ab 3f3e 8e7f 3b3e a58b cf3d 4475 0ebe
00000180: 3d32 43bc cfb7 0fbe d4b8 a0bd 705a 0ebe
00000190: 4476 5fbc ab4c 9dbd 0150 f23d 1eb6 a3bd
000001a0: b9ec 72be 8980 27bd c3e3 f8bc 5887 83bd
000001b0: edf7 2d3e 213e 1bbd 1ece 643c 48ee 1c3e
000001c0: 3653 b4bd a3be 343d 23f8 03bd 3fbc aebd
000001d0: 90f6 0c3e 0df8 f23d b775 063e 1afc 093e
000001e0: 2205 f93c 725a 703d bfbf a33d 0d7f 153d
000001f0: e2e6 c53d c86a ea3d 4d9c dcbc 3ff5 163e
00000200: f487 5a3c 42ce 25bd 3756 30bc 099e baba
00000210: f221 a73c c238 9d3d 4972 773d d591 913d
00000220: de46 b33e 0032 f9be 52f4 87be 2aab a3be
00000230: f405 e9bf 2ac6 9e3d 43e6 1f3d b6cb 353d
00000240: dd53 cd3d e8b9 063c 5088 21bc f520 7ab8
00000250: 2cfb d6bd 294f 84be 5200 d83d 9b42 d13d
00000260: da67 87be d5eb d1be 85af bebe 8844 103e
00000270: cad7 4a3e 4cde 003e 6477 cf3d 4ff5 33bf
00000280: 2222 37be 697d 483e 3967 1bbf 2c64 1cbd
00000290: 4139 08be fc88 b6be 83ec 2d3d 9150 95bd
000002a0: f955 63be 03d5 c3bc 2dd7 95be 185a af3c
000002b0: 32da 24bf 5a00 913c 55b8 ed3d c89e 89be
000002c0: 5452 923c 9f1f f43e 08c9 7cbe 6e8b 2d3e
000002d0: 59ea 98bd 601f 9b3d f763 cd3d aae5 9bbd
000002e0: b868 4cbd 6f5a f93d 9f2f 743d 8e16 a03c
000002f0: f9a3 303d 844f 98bd 4012 623e 9b90 6c3c
00000300: 46c7 aebe 5122 88be 7510 57bf e80c 5fbd
00000310: 6f0c a2bd 8e5b 27bc 0a70 623d c57d 5fbd
00000320: 92f8 1a3e f8c2 67bd 2132 283e 7e04 183e
00000330: 4371 2abd 583b 223e 1360 e93d 11ba 0d3e
00000340: 9b68 1b3e 76b9 033e f654 1a3e 3143 5fbe
00000350: e389 313e 3d64 6b3d 67c5 a5bd 6486 b33d
00000360: 80fc a73d 4a6b 783d 309f 40be b340 f4be
00000370: 5577 ae3d c973 bb3c 4b2f b9bd d767 ba3d
00000380: 3e6b 923d 7639 073e df4d 013e ad4a 863d
00000390: 2b90 533d 887a dc3c 0b73 6c3d f4c8 9d3c
000003a0: c5a2 7f3d ea97 983d d20a c53b 8465 81bb
000003b0: 64b6 f6bd 202e 883d ff8f 25bc 58ad e13d
000003c0: 6670 6f3e a042 6a3e 074b 033e a3d0 c83d
000003d0: fe24 b23d 97ff 013e 4e7c 9e3c ed35 963e
000003e0: 23ee c6be a8b4 0bbf 59e5 1bbf c71f e7bf
000003f0: 275b d13d 5d82 dc3d ca95 c23d c3c4 003e
0.028312445 -0.7338546 -0.03806503 -0.095106125 -0.7881862 -0.09341119 -0.12202643 -0.110079035
-0.33495292 -0.055296525 -0.20961413 -0.14111064 -0.03324185 -0.45410073 -0.2696337 -0.34502646
-0.062239278 -0.0060999584 -0.03969024 -0.038814858 -0.1714447 -0.17617139 0.08933773 -0.32188514
-0.44943947 -0.63540375 0.2161663 -0.15991384 -0.11938208 -0.119968526 -0.08322851 -0.058604006
-0.1978743 -0.381178 -0.46099123 0.24517214 0.12627092 -0.05565861 0.08509849 0.0851917
-0.01607546 -0.0025406228 0.26837885 -0.5700362 -0.058608532 -0.6869572 -2.190398 0.15295626
0.23771186 0.092968926 0.10772859 -0.010169884 -0.06011068 -0.008800572 0.07372328 0.04647432
0.054357067 -0.060355138 0.0459129 0.07150578 0.10897602 0.15647554 -0.005191614 0.11441888
-0.040204864 -0.027696332 -0.14326696 -0.09144146 -0.19427715 0.008804078 0.1354865 0.27392146
0.008953434 -0.0037046147 -0.12231075 -0.032389846 0.012929642 0.05223662 0.080421604 -0.08621251
0.08480206 -0.04013342 0.020507397 0.061906867 0.3922174 -0.30961898 -0.5149748 -0.24520852
-1.3057094 -0.026521051 0.076299965 0.18959054 0.18717922 0.18310377 0.10134057 -0.13911921
-0.011913833 -0.14034961 -0.07847753 -0.13901687 -0.013639037 -0.07680639 0.11831666 -0.079937205
-0.23723115 -0.040894065 -0.030382043 -0.06422299 0.16989107 -0.037901048 0.013965158 0.15325272
-0.08804934 0.044127118 -0.032219063 -0.08531999 0.13765931 0.11863718 0.13130842 0.13475075
0.030397955 0.058680005 0.07995557 0.03649812 0.09663178 0.11446148 -0.026929999 0.14741991
0.013338078 -0.040479906 -0.010762743 -0.0014237772 0.020401929 0.07676841 0.060411725 0.071078934
0.35015005 -0.4867096 -0.2655359 -0.31966525 -1.8204942 0.077526405 0.039037954 0.044383727
0.10025761 0.008223034 -0.00985916 -5.963534e-05 -0.10497126 -0.25841644 0.10546936 0.10217782
-0.2644642 -0.41000238 -0.37243286 0.14088643 0.1980888 0.125848 0.10130194 -0.70296186
-0.17884114 0.1957909 -0.6070438 -0.03818147 -0.1330309 -0.35651386 0.042461883 -0.072907574
-0.22200765 -0.023905283 -0.2926573 0.021405265 -0.6439544 0.017700363 0.11607424 -0.26878953
0.017861523 0.47680375 -0.24686062 0.1694772 -0.07466573 0.07574344 0.100288324 -0.07612164
-0.049904555 0.12175452 0.059615728 0.019542005 0.043125127 -0.074370414 0.22077274 0.0144387735
-0.3413641 -0.2658868 -0.84009486 -0.054455668 -0.07912528 -0.010214699 0.05528263 -0.054563303
0.15133885 -0.05658242 0.16425373 0.14845464 -0.04161192 0.1584295 0.11395278 0.1384051
0.15176623 0.12863716 0.15071473 -0.21802975 0.17337756 0.05746864 -0.08094292 0.08765867
0.082024574 0.060649194 -0.18810725 -0.47705612 0.085188545 0.02288236 -0.090422235 0.09101837
0.07149361 0.13205513 0.12627362 0.06557212 0.05165116 0.026913896 0.0577269 0.019260861
0.06241109 0.0745085 0.006013253 -0.003948869 -0.12046507 0.06649423 -0.010105132 0.11019391
0.2338272 0.22876978 0.1282159 0.09805419 0.08698462 0.12695156 0.019346382 0.29338017
-0.3885356 -0.54572535 -0.6089683 -1.8056573 0.10222464 0.10767052 0.09501226 0.12575059

fc1.bias f4 [64]
00000000: b3e3 e8bd 0ceb 443e dfd0 69bc 8724 bf3b
00000010: 4384 84bc f227 34bd 6b23 06be 66d4 a1bd
00000020: 88b0 9dbd 727d 5bbd 91dc 03be 3314 063e
00000030: b4ba 1e3e 33b6 e9bd 2965 4c3d e9a0 eabd
00000040: 1806 d6bd 5efe d6bd c891 14be 8439 00be
00000050: 81df dcbd 2330 74bd 1dc1 1dbd a197 5fbc
00000060: a322 473d c0fe 44be ebcb 663c aec7 0fbe
00000070: d2d5 dabd a447 a0bc 5700 3dbe 02f5 bc3c
00000080: b413 92bd 57ad 0a3e 6f3b 1c3d 11f7 9f3d
00000090: 9bea 89bd 3fe3 7cbd d6c2 ef3d 6b4a ca3d
000000a0: 4da0 e53d d4ee 93bd a54a 0b3e c00c 1a3d
000000b0: c380 efbd fdc4 96bd a54d fb3d 91af 6c3d
000000c0: 7e0e 423e c5cc c1bc ade8 543d 13cf ad3d
000000d0: f75c d33d f261 bcbd 7da8 31bc 6b6a c33d
000000e0: fa03 b33d 8e59 2bbe cb9d 583e 9f74 683d
000000f0: 173a 30bd 2e47 3d3d 5f92 ad3d 97a5 d3bd
-0.11371555 0.19230288 -0.01427099 0.005833212 -0.016176349 -0.043983407 -0.13099448 -0.0790184
-0.07699686 -0.05358643 -0.12877108 0.13093643 0.15500909 -0.11411705 0.04990116 -0.114564724
-0.10450381 -0.104977354 -0.14508736 -0.1252194 -0.107848175 -0.05961622 -0.038514245 -0.013646991
0.048617017 -0.19237804 0.014086704 -0.14041016 -0.10685314 -0.01956541 -0.18457161 0.023066048
-0.07132664 0.13542686 0.038142618 0.07810796 -0.067342006 -0.061740156 0.11707084 0.09877475
0.112122156 -0.07223287 0.13602693 0.037609816 -0.11694481 -0.07361791 0.12270669 0.05778462
0.18950841 -0.023657212 0.05197971 0.08486762 0.10320466 -0.09198369 -0.010843393 0.09541782
0.08740993 -0.16733381 0.21153943 0.056751844 -0.04302415 0.04621046 0.08475184 -0.10334318

fc2.weight f4 [128, 64]
00000000: f032 8bbd f0ce 733d 58f5 383e 6bd7 8abd
00000010: f567 823e d366 f13d ba5d 0bbe 4a23 80bc
00000020: 4d29 e83d 4eb8 2dbe 7b41 06be af0d 853e
00000030: 27ba 31be f2bb 2abe b46c c63d 9351 1d3e
00000040: 6c23 e73c b774 97bd 7645 8dbe da3f 8cbd
00000050: 7698 2b3e dd72 923d dea8 0c3e fd29 6a3d
00000060: 537d 243e 017b 7cbd 50ae 38be 21eb 83bd
00000070: 2e37 d93d 7d52 1d3d 808a 0dbd 5faa ab3e
00000080: 21b2 a8be 6c3e 90bd e364 adbc 54a2 70be
00000090: b6bc 1b3d cfa4 72be d81a df3d 350e 25bd
000000a0: cc35 333d 505e 0ebe 8e95 f9bc 7a17 e2bc
000000b0: eb5e b9bd b647 03be c578 b83d de82 023e
000000c0: 4ca2 033d 9c64 79bb 9955 7bbd 88f1 d0bd
000000d0: 8545 29be 12c4 75bc cd23 90bd 7ec6 e33d
000000e0: f77d 973d 2a73 0cbd 2dc0 5fbd c36f b3bc
000000f0: d5f2 cd3c 6553 093e 7266 d7bd 6f8b 043d
00000100: 7481 f43d 1e9c 2a3e b798 c43c 6e81 66be
00000110: 77d8 b43d 2c01 353e 2456 11be b245 15be
00000120: 46b8 9cbc a470 2abd f2dc 2d3c 75a5 6c3c
00000130: 696c d2be 8aa4 2abe b4cf c7be 892b bd3d
00000140: 946f 76be 086d bbbe 2669 c2bc 0dbe 933d
00000150: 0951 42be 4c5f 3e3e 02cf 673d 0276 dc3d
00000160: 8bed 003e 29f8 e1bc 8445 c93d 0b8a c7bd
00000170: 754c f4bb 6bde 543e f282 bcbe e707 0ebe
00000180: 1543 8abe f50a 73be 0995 39be 65fd 463e
00000190: 53fa 203b 9577 c7bd ba39 3abe 45a4 8fbd
000001a0: 2fab 53bd 82a3 b3bd 37f7 683e 0638 7c3c
000001b0: faef b2bd 1e24 0ebe 437e 423e c7dd a6bd
000001c0: 1246 94be eba9 56be eee4 81bc 6a58 2a3e
000001d0: 852d 2abe 4eaf 89be 0977 d93d a39b 6ebd
000001e0: ad00 a7bd e8e5 c0be 4274 993e ea8b ac3e
000001f0: f4d3 34be ed9d 14bd 479c 333e b5d5 29be
00000200: 5704 813d 2806 5b3e 8514 c43d 465f d43d
00000210: cc45 1c3d 9e82 0a3e 7ff9 043e 974d 333e
00000220: b124 963b b080 39be e1d7 8e3d d497 f93d
00000230: 1827 f13d 291a d43d 6b2c 643c 41f7 83be
00000240: a58c cfbe 0c06 e8be 11ca a8be fb67 72be
00000250: a7b0 213e d983 fbbb 0a0a d63d 3cc1 b2bb
00000260: 3f37 2fbd a669 9c3e bbcc 5dbe c811 b9be
00000270: 99e0 21bf e3fc 65be 0019 1fbf d62e ccbb
00000280: 5022 673e 7d2b 49be 9375 fabd 59cb e2be
00000290: c47b 9a3e 6782 87be 84a2 b93d 704d d7bc
000002a0: dbc6 0cbd d744 cb3c b47e af3c 6630 0fbe
000002b0: bdb8 9abe 7e3a 2f3d fc7e af3d ff6b 093e
000002c0: 8c2d 5ebd f526 e13d 2747 cd3d a308 ee3d
000002d0: 9079 3e3e 95b4 cfbc 2619 2fbe cdb2 5abd
000002e0: 0a8e 923c 7377 233e 0918 f6bb 8f5b 4abe
000002f0: ebe4 983e c15b 59bd ecc6 19bd d5e0 193e
00000300: 9ed3 00bd 9705 1dbe 5ffc 3e3e fde9 c6be
00000310: 9f92 2bbd efcd 7abe e844 5d3d a01c 93bd
00000320: 777b 85be e5cf c1be 041e 24be b49f 1d3e
00000330: afcd aebe b24b ccbd 1896 1e3d 589c 213e
00000340: c633 d0bd 97ff 9bbd f003 5cbe 404a 993d
00000350: dc25 20be 9e96 7ebe c60d 07bd 6b5d 4bbe
00000360: 4323 91be a63a 18bd a866 7ebe 5fcd 20bd
00000370: 453c 0ebe 2cc3 c8bd 820d 49be bc43 afbe
00000380: 6030 3dbe 7653 1fbe acb0 ff3c ed6a 063e
00000390: a638 4cbd b236 f1bd 8eb5 acbd 3efe edbd
000003a0: 07cc f0bd 54e5 31bc e184 58be 268e a0be
000003b0: c2db 84bd d836 86bd d3b6 c7bb 5b8b b5be
000003c0: aec7 b93d 18d7 92bd 6d47 82bd 0d85 06bd
000003d0: 2e34 c0bc 8770 90bd 61d8 eebc c6da bfbe
000003e0: 9b38 7f3d 5f7c 8cbe 3fe5 6a3e 54cb 73be
000003f0: e282 0abe d6bd 87be 438c 96bd 8a55 d7bd
-0.06796825 0.059523523 0.18062341 -0.06779369 0.25469938 0.1178719 -0.13609973 -0.015641827
0.113360025 -0.16964838 -0.13110916 0.25987002 -0.17356168 -0.16673258 0.09688702 0.1536315
0.028215133 -0.073953085 -0.27592057 -0.06848116 0.16757378 0.07150815 0.13736293 0.05716895
0.16063432 -0.061640743 -0.18035245 -0.06441332 0.10606228 0.038408745 -0.034555912 0.3352842
-0.32948402 -0.07043156 -0.02116627 -0.23499423 0.038021766 -0.23695682 0.10893792 -0.040296752
0.043752477 -0.13903165 -0.030466821 -0.027599085 -0.09051307 -0.12820324 0.0900741 0.12745234
0.0321372 -0.0038054353 -0.06136093 -0.102023184 -0.16530426 -0.01500036 -0.070380785 0.11121844
0.07397073 -0.034289517 -0.054626632 -0.021903878 0.025140205 0.13410719 -0.10517587 0.032359537
0.11938754 0.16661116 0.023998601 -0.22510311 0.0883035 0.17676228 -0.14193016 -0.14577368
-0.019130837 -0.04161133 0.0106117595 0.014443745 -0.41098335 -0.16664329 -0.39025652 0.09236819
-0.24066001 -0.36606622 -0.02373178 0.07213984 -0.18976225 0.1859104 0.056593902 0.10764696
0.12590615 -0.027584152 0.09827712 -0.097431265 -0.0074554035 0.2078797 -0.36818653 -0.13870202
-0.27004305 -0.23734649 -0.18123259 0.194326 0.0024563267 -0.09739605 -0.18186083 -0.07013754
-0.051676925 -0.08771421 0.22750555 0.015394216 -0.08737178 -0.13880965 0.18993478 -0.081477694
-0.2895971 -0.20963256 -0.015856232 0.1663529 -0.16618927 -0.2689156 0.10618407 -0.058253895
-0.08154426 -0.37675405 0.2997151 0.33700496 -0.17658979 -0.036283422 0.17540084 -0.16585429
0.06299656 0.21389067 0.09574226 0.103697345 0.0381525 0.13526389 0.129858 0.17510067
0.0045820107 -0.18115497 0.069747694 0.12187162 0.11775035 0.10356552 0.013926606 -0.25774577
-0.4053699 -0.45317113 -0.32966664 -0.23672478 0.15790044 -0.0076756296 0.104511335 -0.0054551642
-0.042777296 0.30549353 -0.2166013 -0.3614638 -0.63233334 -0.2245975 -0.6214752 -0.006231169
0.22571683 -0.19645496 -0.12229457 -0.44295767 0.3017255 -0.26466677 0.090642005 -0.026282042
-0.03436933 0.024813099 0.021422721 -0.13983306 -0.3021907 0.042780392 0.08569142 0.13420103
-0.054242656 0.109937586 0.10023337 0.11622741 0.1860106 -0.025354663 -0.17099437 -0.053393174
0.017889995 0.15963535 -0.0075101894 -0.1976149 0.2986215 -0.05306602 -0.037543222 0.15027173
-0.031451814 -0.15334164 0.1865096 -0.38850394 -0.041887876 -0.2449262 0.054020792 -0.07183194
-0.2607076 -0.37853923 -0.16027075 0.15392953 -0.341413 -0.09975375 0.03871736 0.15782297
-0.10166125 -0.07617109 -0.21485877 0.07484865 -0.15639442 -0.24862143 -0.03297212 -0.19859855
-0.28347215 -0.037165307 -0.24843848 -0.039258357 -0.13890179 -0.09802851 -0.19634059 -0.34231365
-0.18475485 -0.15559182 0.031212173 0.13126726 -0.04985871 -0.117780104 -0.08433066 -0.116207585
-0.11757665 -0.010857899 -0.2114444 -0.3135845 -0.06487228 -0.06553429 -0.0060947924 -0.35457882
0.09071289 -0.07169932 -0.0636128 -0.03284173 -0.023462381 -0.07052713 -0.029155912 -0.37471598
0.062309843 -0.27438638 0.22939013 -0.23808032 -0.1352649 -0.2651202 -0.073509715 -0.10514362

fc2.bias f4 [128]
00000000: fa07 923c 185d b8bd b528 30be f096 2bbe
00000010: 2809 293e 78b5 303e ae81 073e 8481 b7bd
00000020: 01c3 19bd 8ad0 92bd 0c4a 61be 0b17 c33d
00000030: 449e 943e 8036 423d f685 91bc bb07 803c
00000040: f00e 98bd a409 fa3d ba7b 26be d62e 10bc
00000050: 6c89 49be 676b f93d d116 1dbe 6921 ccbd
00000060: f50e 0c3d 5ce3 df3d d75e 09bc 96c3 4d3e
00000070: f737 86bd 2b91 65bd 712b 4d3c 7021 a1bd
00000080: e070 58b9 f4b1 ae3d f483 033c 896d 2bbe
00000090: f275 1abe 4163 503d 1c44 dbbd 34f6 2e3d
000000a0: 26ed f6bd af19 1ebd 801c ca3c 0907 babd
000000b0: d159 843d 02bf 97bd 6dd3 1bbc b546 7d3c
000000c0: 51cf b53d f9f4 bdbd 6054 e03c d8fd 9ebd
000000d0: 84f2 143d 3221 8abc 70b0 1abe 980a 20be
000000e0: 75c6 fabd 2a8d f43d 4123 813d 605f c73d
000000f0: 3cb7 1bbe 5dd3 23be 3b56 afbc d278 49bd
00000100: 429a 8b3d 1eda 8f3d 536c 8f3e 9da3 08be
00000110: f2af 873d 53ff cebd ae83 a3bd c942 8f3d
00000120: 805f bebc 3f9a 21be 087b 7b3e 5a37 e1bd
00000130: 709f cdbd 530c 4a3d ce5e fe3d f890 19bd
00000140: 1362 2abe 67cc 213d de05 1f3e 2792 0ebe
00000150: 2c0f a03d 3ec1 64be 8c15 3fbd bcfb a1bc
00000160: d49d eebd 0506 873d befa e83d 5108 69be
00000170: d3ea e8bd a621 18be 1eaf 10be 8c28 89bd
00000180: a828 03bc 9ae9 25be 7343 4d3e 38eb 9f3e
00000190: c219 823e 32e6 ec3d aec8 b93d 12ad 14bd
000001a0: 299d babd 06b6 1c3d b22c 2a3d bebe 893d
000001b0: 7f7a 41be 06b0 81bd e9ce 9c3d b10d 0d3c
000001c0: fff6 1fbe 62d1 8e3d 60de 26be 7fff 323e
000001d0: 3977 8f3b 29a0 743e 6005 1f3e f226 0e3e
000001e0: 155a ccbc d056 07bc 713a edbd 5106 f8bc
000001f0: 0f1f c8bd d587 17bc 0285 12be bb9f 14be
0.01782607 -0.09002131 -0.17203029 -0.16756797 0.16507399 0.17256725 0.13233063 -0.0896025
-0.037539486 -0.07168682 -0.22000903 0.095258795 0.29026997 0.047415257 -0.017764073 0.015628686
-0.07424724 0.1220887 -0.16258135 -0.008800229 -0.19681329 0.121786885 -0.15340735 -0.0996731
0.03419395 0.10932037 -0.008384428 0.20094141 -0.06553643 -0.056046646 0.012522564 -0.07867706
-0.00020641414 0.085300356 0.008027066 -0.16741003 -0.15084055 0.050875906 -0.1070635 0.042715266
-0.12056951 -0.038598713 0.024671793 -0.09083373 0.064624436 -0.07409479 -0.009510857 0.015458752
0.08877433 -0.092752405 0.027383983 -0.077632606 0.036364093 -0.016861532 -0.15106368 -0.15629041
-0.12244884 0.119409874 0.06305552 0.09734988 -0.15206617 -0.15998597 -0.021403423 -0.04918749
0.06816532 0.070240244 0.28012332 -0.13343664 0.06625356 -0.10107293 -0.079841 0.0699516
-0.023238897 -0.15781496 0.24558651 -0.109968856 -0.10040176 0.04932816 0.12420426 -0.03749177
-0.16638975 0.039501574 0.15529582 -0.1392294 0.07815394 -0.22339341 -0.046651408 -0.019773357
-0.11651197 0.06592945 0.1137595 -0.22757079 -0.11372914 -0.14856586 -0.14129302 -0.06697187
-0.008005299 -0.16202393 0.20045261 0.31234145 0.25410277 0.11567344 0.0907148 -0.036297865
-0.09112007 0.03825953 0.04154653 0.06725834 -0.18894385 -0.06332402 0.076566525 0.008609221
-0.15621565 0.0697353 -0.16295767 0.17480277 0.004378226 0.23889221 0.15529394 0.13882044
-0.024945298 -0.008260444 -0.115834124 -0.03027645 -0.09771549 -0.0092486935 -0.14308551 -0.14514057

fc3.weight f4 [64, 128]
00000000: 47bb d4bd 77a4 6a3e 9c0b 913c 0c2c ed3c
00000010: 5485 35bc c2de 45be 75a5 abbe 2598 e1be
00000020: bbe4 c0bd ddd3 043f e090 91bb b9cd 9bbd
00000030: 8dfc 22be dbfe 2a3d 4438 c6be 1e87 843d
00000040: 1c8c a6be c223 c9bd 047f a8bd d63d a53c
00000050: 8b15 5dbd 2d7f 943c 5a9c 8dbd 66bc 8bbc
00000060: a71f c3bc 8f26 1bbe d860 ab3d bad1 90be
00000070: 2a8f debd b412 203b f578 cabe 19a4 15be
00000080: 63c4 5cbd 1e0e 2e3d 1336 363e f962 2fbd
00000090: c053 32be 51fd f83c 236e cdbd 40d7 64be
000000a0: 9bad d7bd 6f85 a4bd ad63 9bbd e8ee 073d
000000b0: 634c 7abe bee5 afbd a7a4 ea3d 0582 a23d
000000c0: ae02 19be ad1b a23b 17a8 c43d 217c a2be
000000d0: 11e2 93bc aedb 303a d5a0 ab3c 0bc5 f13b
000000e0: 1c77 a63d aecc 07bd 8fed 5f3d 1020 4dbd
000000f0: ff9c 0dbd 03c7 e93a f350 4fbd 1e36 6bbb
00000100: 38fd f63d c3b4 05bd e154 3ebe 6e38 a0bc
00000110: e3af 07be f601 be3d 6967 373e a4b4 d03c
00000120: 27f7 793d 80cb 1a3e 7bec 32bd d744 2fbe
00000130: e619 c1bd 1b7a 8dbe fa21 b7be ef30 f0bd
00000140: acb0 f03c 51aa 083d dc9e 3bbe 3828 d23d
00000150: f77d 8dbd 435d ccbd fb46 0dbc 53fc 69be
00000160: f803 cb3c e151 4dbe ec01 fcb7 bc46 9c3b
00000170: 8fb7 6a3d 9fe3 ebbc 11cb e0bd 8301 b0bd
00000180: 09e0 943e dd89 be3c a9bb 9abd 7e9d 30bd
00000190: f9f4 783d 7226 713e 0f1f a2bc 5181 a9be
000001a0: c838 aebd 4fae 63bd 8e12 72bd 88f0 b23d
000001b0: 3fce 7f3c 7db2 1bbe 8980 26bc 4c88 22be
000001c0: 10bf f3bd 2a19 81bd 6a76 2d3e 156b d7bd
000001d0: 7c46 7d3d c0bb ebbd 0908 ebbc 4072 c8bd
000001e0: b6cf 82be fcf5 a43b 45d0 25be d264 dabd
000001f0: 772e 283f b8f8 f6bc 0722 53be f899 bc3d
00000200: c905 b5bc 16dd 073d b79f 403d 61ae ea3c
00000210: 5134 6bbd bd5d d7bd d23b d13c 8b6b d5bd
00000220: 0a05 3c3d f307 4d3d ba32 873d 3c1c 9d3d
00000230: dc77 90bd 404b 34bb 97ad afbd 4552 0ebd
00000240: 70e2 9fbb 50e0 bcbd 58de 023d b5f3 8abd
00000250: ea4a 663d c09c 1ebd 1cf3 6ebd 497e c53d
00000260: 1e71 6ebb e4a2 c2bd 879e 9ebc 143b 2cbc
00000270: a8bf 05be 22db e9bb 906f 873d 12e6 abbd
00000280: 3c4f afbd 1e32 1d3c 1e39 7d3d d411 4fbb
00000290: ad29 a2bd 22a2 67bc 48e7 b4bc 0ac2 31bd
000002a0: 01b1 dfbd 92cb b8bd a370 a9bd 7c57 343d
000002b0: 51ee b73b af56 26bc 6c32 5ebc 21e6 1ebd
000002c0: 5666 8e3c 9791 83bd d769 34bd 7351 993c
000002d0: e1c4 90bc 7ef1 ed3c 5c74 edbc d3a8 7fbd
000002e0: 770d e53c 1ec8 7dbd f453 1cbd 8c96 1d3d
000002f0: 934a 83bd 0a3b 4fbd bfe5 4bbd 8b9b 1fbd
00000300: b46e 8dbd f57f 023d fd6b 97bd 555c b23d
00000310: 63f0 0b3c 9904 6e3c 3215 89bd 16b7 eebc
00000320: e396 a9bd 2d72 2a3d f319 b3bd 6b08 a9bc
00000330: 9b87 913d fddc e1bd a70b 5fbd 0abe aebd
00000340: f176 343d fb85 16bc 742d 85bb 6e86 593d
00000350: 71dd 26bd 5323 233c b18b 13bd a856 793d
00000360: 3db6 943d 849d f0bd a0ea 4dbd a1e9 bebd
00000370: d8cd 82bd bf53 e4bc 59b6 713d aac0 29bd
00000380: e33c 6dbc 1c21 80bd 8e82 e3bd 4bc9 343d
00000390: 3a1b 28bd 0ce2 dd3c 9ba2 b8bd 7605 72bb
000003a0: daaa cabd 561a af3c 6f10 b5bc ae5f 973c
000003b0: ecbf 5d3d e2cd b9bd 9617 dabc 9d1c 2f3d
000003c0: 911e a1bd a69d 84bd 8599 70bd 639b adbc
000003d0: c672 443c 3199 bcbd 0278 d2bd 78de 3abd
000003e0: 1ef9 cebc d629 c93c b42b 923d 661a 0cbd
000003f0: 6d36 74bd 804b 553d b2cf 84bd f29a 5b3d
-0.10387283 0.22914301 0.017705731 0.028951667 -0.011079151 -0.19323257 -0.3352467 -0.4406139
-0.09418627 0.5188578 -0.0044423193 -0.07607598 -0.15916653 0.041746955 -0.38714802 0.06471084
-0.3252877 -0.098212734 -0.08227351 0.020171087 -0.053975623 0.018127048 -0.06914587 -0.017057609
-0.023818804 -0.15151428 0.08368081 -0.2828501 -0.1086715 0.002442521 -0.39545408 -0.1461338
-0.053898226 0.042493932 0.17794065 -0.042818997 -0.1741476 0.030394228 -0.100307725 -0.22347736
-0.105311595 -0.08033263 -0.07587371 0.033186823 -0.24443202 -0.08588742 0.11457186 0.079349555
-0.14942428 0.004947147 0.09602373 -0.31735328 -0.018052133 0.0006746602 0.020950714 0.0073782257
0.08128187 -0.033154182 0.054669913 -0.050079405 -0.03457355 0.0017835799 -0.05061431 -0.003589041
0.120600164 -0.03264309 -0.18587066 -0.019558158 -0.13250689 0.09277718 0.17910542 0.025476761
0.06102672 0.15116692 -0.043682557 -0.17116104 -0.09428768 -0.27632222 -0.3576811 -0.11728083
0.029381119 0.03336555 -0.18322319 0.10261577 -0.069087915 -0.09978726 -0.00862288 -0.2285016
0.024782166 -0.20050766 -3.0041636e-05 0.0047691744 0.05730396 -0.028795062 -0.10976232 -0.08594038
0.29077175 0.023259098 -0.075553246 -0.043118946 0.0607805 0.23549822 -0.0197902 -0.33106473
-0.08506924 -0.055586156 -0.059099726 0.08737284 0.015613138 -0.15204807 -0.010162481 -0.15872306
-0.11901677 -0.06303628 0.16939703 -0.10518471 0.061834797 -0.1151042 -0.028690355 -0.097874165
-0.25549096 0.0050342064 -0.1619273 -0.10663761 0.656959 -0.030147895 -0.20618449 0.09209055
-0.022097485 0.03316983 0.047027316 0.028647603 -0.05742294 -0.10515926 0.02554122 -0.10420903
0.045903243 0.05005641 0.06601472 0.07671401 -0.07054111 -0.0027510673 -0.085780315 -0.034746427
-0.0048792884 -0.09222472 0.031950325 -0.06784765 0.056223787 -0.038723707 -0.058337316 0.096432276
-0.003638334 -0.09503725 -0.019362701 -0.010512132 -0.13061392 -0.0071367184 0.06613076 -0.08393492
-0.08560035 0.009594468 0.06182205 -0.003159632 -0.07918105 -0.014137777 -0.02208294 -0.04339794
-0.10922433 -0.09023203 -0.08273437 0.044028744 0.0056131263 -0.010152503 -0.013561826 -0.038793687
0.017382782 -0.064242534 -0.04404625 0.018715596 -0.017672004 0.029045817 -0.028986149 -0.062416863
0.027960522 -0.061958425 -0.038166 0.03847365 -0.06410708 -0.050593413 -0.04977965 -0.038966697
-0.069058806 0.03186031 -0.07393644 0.08709017 0.008541199 0.014527463 -0.06693496 -0.029140037
-0.082807325 0.041612793 -0.08745184 -0.020633897 0.07105943 -0.11028478 -0.054454472 -0.08532341
0.044058744 -0.009187217 -0.0040642563 0.053106718 -0.040738527 0.009957152 -0.036021892 0.060873657
0.07261322 -0.11748794 -0.050272584 -0.09321905 -0.06386918 -0.027871964 0.05901179 -0.041443504
-0.014479849 -0.06256315 -0.11108886 0.04413728 -0.04104159 0.027085327 -0.090153895 -0.0036929525
-0.098958686 0.021374863 -0.022102563 0.01847824 0.05413811 -0.09072472 -0.026622575 0.042751897
-0.07867158 -0.064753816 -0.058740158 -0.021192258 0.011990255 -0.092089064 -0.10276796 -0.04562232
-0.025265273 0.024556082 0.07137242 -0.034204863 -0.059622217 0.052073956 -0.06484927 0.053614564

fc3.bias f4 [64]
00000000: d0c6 bcbd bc1e 52bd a3bb cf3b 9150 99bd
00000010: df48 bcbb 3014 d13e 0dfb 4fbd e3cf ed3d
00000020: 1ad5 e83e adb4 173d 1bc0 be3d 0096 f53e
00000030: 787b 9b3d 8ce8 873e 0936 643d 6e39 363d
00000040: fc9a 62bd 8362 acbc 8ef6 82bd 7f78 44be
00000050: 4e92 043c 3f82 da3e 8e47 1f3e e4f6 863c
00000060: 0789 1b3c b401 0a3f 11f5 df3d c1b9 eebc
00000070: 9b9d ff3e a62a d7bd a914 54be 4ad9 babd
00000080: 6c07 253e 7dc8 c23e 4265 7e3e 9f24 413c
00000090: ada1 a03b db14 fd3d c0f7 c53e 43a3 5f3e
000000a0: f2b1 153d b535 4dbe d26b b4bd a261 bdbd
000000b0: 8ddd b53d 2b33 3a3d 21f9 d83d 82ab dfbc
000000c0: 7add d03e 2ae5 87bd 8815 debd fda0 c13d
000000d0: 62c0 1bbe 04d7 9bbc d889 07be 8095 143e
000000e0: a8e5 44be 91da c93d 4843 a83c 5c84 98bd
000000f0: 7a6b f1bd 9ffd 97bd 5efc dcbd 2409 83bd
-0.09217608 -0.05129884 0.0063395067 -0.0748607 -0.0057459916 0.40835714 -0.05077653 0.11611917
0.45475084 0.03703754 0.09313985 0.47966003 0.07591909 0.26544607 0.055715594 0.044488363
-0.055323586 -0.021043068 -0.06394683 -0.1918659 0.008091522 0.42677495 0.1555464 0.016475148
0.009493119 0.5390885 0.109354146 -0.029141309 0.4992493 -0.105061814 -0.20711006 -0.09123476
0.16116112 0.38043585 0.24843314 0.011788516 0.0049020858 0.123574935 0.3866558 0.21839623
0.036546655 -0.20040019 -0.088096276 -0.092471376 0.08880148 0.045458954 0.105943926 -0.027303461
0.40793973 -0.066355065 -0.108439505 0.09454534 -0.15210107 -0.019023426 -0.13236177 0.14510155
-0.19228232 0.09856141 0.020539895 -0.074471205 -0.11788078 -0.07421421 -0.10790323 -0.06398228

fc4.weight f4 [4, 64]
00000000: dcec 98be c21e 82bd 6f7a 073c d797 b0bb
00000010: 3916 8ebe 5cbf 273e e09b 75bb 1a95 bb3e
00000020: 176f 103e df7e 2f3e 735e 463e d32c 0d3e
00000030: d209 513b 3045 f63d 9144 5b3b edec 923e
00000040: 7a95 76bd 55ca 0d3e a735 d93a 199c 8e3d
00000050: 253a b6be eb50 9a3e eaa4 383e 593a 4d3e
00000060: d152 7e3e 1fdf 303e 1265 fe3d c01f d73d
00000070: 8f90 3e3e d4d7 d53d fc2e 19be eaa5 f53d
00000080: 756c 2a3e d8aa e53d 5d62 393e e7b9 0f3e
00000090: 32dc 1fbe 6eb0 1dbd f6d6 b23d ef4a 653e
000000a0: 36f9 7d3e dcd4 fabd aa6f 6dbb 86f5 813d
000000b0: 63b6 063e 3862 93bd 2b57 a13e b012 873e
000000c0: db20 d43d 9069 213e db0b c4be d306 b33d
000000d0: 1d4d a2be 4961 a6bd a441 00be ed24 de3d
000000e0: 6733 29be 8040 963d 7b48 41be cc44 a1bd
000000f0: 8366 4bbe d5fb 8f3d ec0c 48be 73a2 e3bd
00000100: a754 5abe 2b66 943d 3757 44bd cb36 02bd
00000110: 0488 6bbd a6ed 643e b6db 3cbe 47c3 943e
00000120: e436 833e 70a6 833e adbd 263e ba22 673e
00000130: 41df 113d 790d 633e 18fc a33d 1ee9 793e
00000140: b945 b13d 86b2 aa3e 9e84 583e 75d6 3c3d
00000150: 980a bdbe 7b8a 663e c12f 273e a5d7 893e
00000160: 1f63 7b3e a7d2 4f3e 6c33 ae3e d514 31bb
00000170: f9e5 c43d fd07 213d 002d 77be 1356 903b
00000180: 6aeb 573e 9bb9 cd3c 24dd ef3d 262b 2fbe
00000190: bb49 3d3c 1ef8 35bc 5038 443e 50f9 3b3e
000001a0: 7753 823e bd09 55be 8bca b8bb f8d8 d33b
000001b0: 1ae8 973d cc16 353d 65f4 3e3e 7e93 12be
000001c0: 9cbc 3c3e 645a ed3d 0e80 70be 2ce4 213e
000001d0: 6e26 22be 77d8 25be 907b 42be 934e 81bd
000001e0: f673 e6bc 952c 3f3e 1969 c93c 9f88 463d
000001f0: f299 71be f929 bc3d 8976 57bd 27fe 68be
00000200: ec00 933e f32c 8dbd 005e 833e 52a8 923d
00000210: da84 93be 5526 0a3d 08f6 fabd dabe 9e3e
00000220: 635b 8d3e 3f8c 3a3c bfb8 073e 6789 133e
00000230: d5a5 543e 9232 a7bd 9b40 0e3e 041c 193e
00000240: 5625 453e 87fb eebe 18a3 d9be 6f85 3abc
00000250: 06dc fcbd 3499 3f3e 91d4 f93d 05a7 76be
00000260: f2ed c9bc c137 843e 96d6 21bc d63d a5bb
00000270: 7462 753e 3f38 8ebd 8aad a0be de81 3fbe
00000280: 009e 103e 052d 503e 972d c93d 1c9a 67be
00000290: f376 e0be 5add 5a3e e9e0 283e 4c21 5b3e
000002a0: 973d ae3e 71ce 72bd 8718 d63d d06d b13d
000002b0: d49d 033e 42f0 603e ccb0 2b3e 3b84 253f
000002c0: 969a 113e 4362 963d 8967 abbb 7f62 0dbe
000002d0: 31c7 9abe 94ee 963e ee28 cdbe cd35 103d
000002e0: a7d3 383d db29 8c3e 1ba2 07bf 6f7d 84bd
000002f0: 7831 763e e1ea 35bd 455d b6bd c639 643e
00000300: bd7f 0cbe ac66 6abd 5281 163e f0d2 5c3c
00000310: 9c32 42be 8b4c 343e 14fc 87be 489d dd3c
00000320: 072c 843e c7ea e83e e377 cf3e f8a1 2f3e
00000330: c118 493e 2166 203e f788 c4be 14f2 d6bd
00000340: f18a 5c3e a5d0 193e 193a 89be f6d4 9ebe
00000350: 11fc d1be c578 b63d 6016 0bbb 6145 703c
00000360: 1e49 e83e 1ecd 1b3e ff55 73be ebcd 0e3d
00000370: b04f 313e c2a8 e7bc 23ec 56be a81e 28be
00000380: 38f7 353e 3a9a 763e 2717 903e 5b97 193e
00000390: 40aa cf3c df76 533e 2dd7 1e3e eb4c 5d3d
000003a0: e4b4 5cbe a83a 1cbe 5816 bf3c 153b 9bbd
000003b0: a959 a13c e740 a2bd dce6 413e 45af 413e
000003c0: 91a2 353e 3480 14be 6173 95be 8739 243e
000003d0: b0fc 623d 47da 863e b902 6e3e 7233 0c3e
000003e0: df50 48bd 44d0 aa3d fa1c 73be 3934 bdbd
000003f0: 5e01 12bf 2112 4d3d 355b 113e a306 633e
-0.2986821 -0.06353523 0.008268937 -0.0053891945 -0.2775133 0.16381592 -0.0037476942 0.36637193
0.14104877 0.17138241 0.19371967 0.1378663 0.0031896723 0.12024915 0.0033457617 0.28696385
-0.060201146 0.13846715 0.0016571776 0.06963367 -0.35591236 0.3013986 0.1803166 0.20041789
0.2483628 0.17272614 0.124216214 0.10504103 0.18609832 0.104415566 -0.1495933 0.11994536
0.16642936 0.112142265 0.18103929 0.1403576 -0.15611342 -0.038498335 0.08732407 0.22391866
0.24802098 -0.12247631 -0.0036229887 0.06345658 0.13155513 -0.07196468 0.31511816 0.26381445
0.10357829 0.15762925 -0.38290295 0.08741536 -0.31699458 -0.081240244 -0.1252504 0.10846887
-0.16523515 0.07336521 -0.18875305 -0.0787445 -0.19863324 0.07030455 -0.1953618 -0.11114969
-0.21321355 0.072460495 -0.047934737 -0.031790536 -0.05750276 0.2235628 -0.18443188 0.29055235
0.25627816 0.2571292 0.16283293 0.22571841 0.035613302 0.22173108 0.080070674 0.24405333
0.08655877 0.33339328 0.2114434 0.04610296 -0.36922145 0.22513764 0.1632681 0.26922336
0.2454953 0.20295201 0.34023607 -0.0027020473 0.09614176 0.03931426 -0.2413826 0.004404792
0.21085897 0.025112918 0.11712101 -0.17106304 0.011553223 -0.011106519 0.19162107 0.18356824
0.25454304 -0.20804496 -0.0056393794 0.0064650737 0.07417317 0.044211194 0.18647917 -0.14314076
0.18431324 0.11589506 -0.23486349 0.15809697 -0.15834972 -0.16195856 -0.18992448 -0.06313815
-0.028131466 0.1866935 0.024586247 0.048470136 -0.23593882 0.09187693 -0.05260328 -0.22753201
0.2871164 -0.06893339 0.25657654 0.07161011 -0.28812295 0.033727963 -0.12253958 0.31004983
0.27608785 0.011385976 0.13254069 0.14407884 0.20766385 -0.081639424 0.13891833 0.14952093
0.19252524 -0.46676275 -0.42507243 -0.011384352 -0.12346654 0.18710786 0.12198747 -0.2408715
-0.024649594 0.25823787 -0.009877821 -0.005042772 0.23963338 -0.06944322 -0.313824 -0.18701884
0.14122772 0.20329674 0.09823149 -0.22617382 -0.4384075 0.21373501 0.16492046 0.2139942
0.34031364 -0.05927891 0.10453897 0.08663523 0.12853175 0.21966651 0.16766661 0.6465489
0.14219126 0.07342961 -0.005230848 -0.13807105 -0.30230096 0.29478896 -0.4007029 0.03520756
0.045123722 0.27375683 -0.5298173 -0.06469237 0.24042308 -0.04441345 -0.089045085 0.22287664
-0.13720603 -0.05722682 0.1469777 0.013478026 -0.18964618 0.17607324 -0.26559508 0.027052537
0.2581484 0.4549162 0.40521154 0.1715163 0.19638349 0.15663959 -0.38385746 -0.104953915
0.21537377 0.15020998 -0.26802137 -0.3102185 -0.41012624 0.08909754 -0.0021223053 0.014664979
0.45368284 0.15214965 -0.23763274 0.034864347 0.17315555 -0.028278712 -0.20988517 -0.16417944
0.17770088 0.2408227 0.28142664 0.14999144 0.025349736 0.20650814 0.1551177 0.054028433
-0.2155338 -0.1525675 0.023326084 -0.075796284 0.019696074 -0.079225354 0.18935722 0.18914516
0.17737795 -0.1450203 -0.2918959 0.1603757 0.055416763 0.26338407 0.23243226 0.136915
-0.04890525 0.08340505 -0.23741522 -0.09238476 -0.57033336 0.050066117 0.14194949 0.221705

fc4.bias f4 [4]
00000000: 4ed9 f63e cec1 833e ae24 643e 4bfb 953e
0.48212665 0.257338 0.22279617 0.29293284
